model.onnx (onnx, 376576 bytes, 10 tensors)

sequential/dense_1/MatMul/ReadVariableOp:0 f4 [64, 10]
0.16296072 0.05048475 0.24543658 -0.16092317 -0.12305708 0.12845828 -0.057398662 0.077262245
0.1947898 0.21684098 0.035247214 -0.16667013 -0.006306646 -0.015718682 -0.21058385 -0.16782175
-0.050951015 0.14355417 -0.047228917 -0.17994285 0.026734233 0.11365326 0.055299297 0.08528708
0.05510517 0.19225897 0.06861125 0.021974621 0.12636426 0.047312964 -0.064733595 -0.23918712
-0.3003345 0.14694451 0.19689754 -0.20711161 -0.034733403 0.20654452 0.22823162 0.24348423
0.2557507 -0.018345067 -0.19388466 -0.040636152 0.07722203 -0.014195164 -0.053622175 -0.13033433
0.067725904 -0.014767753 0.024364423 0.25843948 0.2586291 -0.35600874 0.25209448 0.066886894
0.18896274 -0.0812213 0.09885007 -0.20815869 -0.003183061 0.38835773 -0.15667595 -0.06322495
-0.1939433 0.14299913 -0.22614023 -0.13760413 -0.06924389 -0.003955298 -0.31260866 0.1491242
-0.300722 -0.15432961 0.2066563 0.29249504 0.13694261 0.07921717 0.2766981 -0.2449604
0.089840546 0.1903403 0.26315165 0.20349994 -0.31532428 0.2282628 0.13050444 -0.26380143
0.16048509 -0.283767 -0.0344231 0.24302596 0.35636064 -0.034878314 0.15842372 -0.24271734
0.1687601 0.12945087 0.24509183 -0.31797642 0.07387907 -0.21694009 0.11876191 0.06002229
-0.13389887 -0.06114416 -0.26889482 -0.29337743 0.2533559 -0.11492125 0.052649837 0.028274465
0.1582311 -0.2519549 0.24915604 -0.27069524 -0.11114212 -0.05884257 0.09315872 0.18723935
-0.19978105 -0.17937358 0.16708213 -0.1807435 -0.011954694 0.21186009 -0.20220521 0.05417191
0.14646983 0.26776233 -0.3220609 -0.32120505 -0.30260733 -0.22361824 -0.099836566 -0.102031566
0.2941216 0.022357073 0.07975618 -0.19807988 0.07781186 -0.03770274 -0.24870263 -0.10252748
0.2205845 0.18894301 -0.03862377 0.1339496 -0.2658618 0.27574855 0.16371769 -0.0930804
0.18465075 -0.09961983 0.19101077 -0.108656205 -0.14237322 -0.11334613 0.20476973 -0.014073591
0.13843401 -0.334819 -0.019216865 -0.1468102 0.28834546 0.02596179 -0.04554934 -0.22160624
-0.24745572 0.22262576 0.036364958 0.22428752 -0.32080948 0.22816339 0.14788456 0.15397756
-0.053772587 -0.18149395 -0.3103359 0.014483605 -0.17091571 -0.03748444 0.15955587 0.26807836
-0.27922466 0.015252586 0.009143797 -0.039272767 -0.13514836 -0.018640352 0.19578743 -0.0040151034
0.27586848 0.012005081 0.15431161 0.17609768 0.026912106 -0.20302203 -0.19336826 -0.082480796
0.019651825 0.063898735 -0.22620708 0.10977876 -0.09643065 -0.1573619 -0.16370042 0.10614009
0.15750298 0.16677809 0.2612905 -0.28982988 -0.20476072 -0.20293722 -0.30326667 0.21871851
-0.03686034 -0.055184405 0.34079945 0.023131805 -0.30846113 -0.2699229 -0.035238877 0.093547314
0.11225069 0.10710109 -0.14118072 -0.20371778 0.20634264 0.32295763 -0.16942595 0.18533479
-0.09204081 0.14721666 -0.32078496 0.32103974 -0.11202433 0.26645172 0.08289458 0.14791322
-0.29256105 -0.1061406 -0.11601752 0.09553215 0.113732606 0.24930158 0.2027148 0.1857729
-0.18329434 -0.18061925 -0.15591903 0.18864062 -0.008299092 0.31753182 0.14951974 -0.0337576
00000000: 2ddf 263e 19c9 4e3d ba53 7b3e 0bc9 24be
00000010: 5a05 fcbd 918a 033e dc1a 6bbd ab3b 9e3d
00000020: fa76 473e 900b 5e3e 625f 103d 93ab 2abe
00000030: fba7 cebb 77c4 80bc 4ba3 57be 77d9 2bbe
00000040: 03b2 50bd ddff 123e 1c73 41bd f042 38be
00000050: c001 db3c 0ac3 e83d 8481 623d feaa ae3d
00000060: f5b5 613d 89df 443e 0e84 8c3d 1f04 b43c
00000070: a265 013e 3dcb 413d 0c93 84bd 78ed 74be
00000080: 72c5 99be 9f78 163e 829f 493e 1115 54be
00000090: 9d44 0ebd 6880 533e 8db5 693e ee53 793e
000000a0: c1f1 823e 6548 96bc b389 46be 1872 26bd
000000b0: 9526 9e3d d592 68bc eda2 5bbd 5d76 05be
000000c0: e1b3 8a3d 72f4 71bc e697 c73c 2e52 843e
000000d0: 096b 843e c746 b6be 8712 813e fffb 883d
000000e0: 737f 413e 5a57 a6bd e871 ca3d 8d27 55be
000000f0: e79a 50bb d3d6 c63e a96f 20be 157c 81bd
00000100: 1399 46be 5d6e 123e 4e91 67be 19e8 0cbe
00000110: becf 8dbd 729b 81bb 3e0e a0be 04b4 183e
00000120: 3cf8 99be 9508 1ebe b69d 533e e9c1 953e
00000130: af3a 0c3e 9d3c a23d 60ab 8d3e e6d6 7abe
00000140: 52fe b73d 91e8 423e d0bb 863e 4a62 503e
00000150: 2f72 a1be b9bd 693e f5a2 053e fb10 87be
00000160: 3456 243e e949 91be 3dff 0cbd ccdb 783e
00000170: e774 b63e 90dc 0ebd d439 223e e58a 78be
00000180: 73cf 2c3e c58e 043e 5af9 7a3e cecd a2be
00000190: e94d 973d 8b25 5ebe 7239 f33d efd9 753d
000001a0: c91c 09be 4c72 7abd 95ac 89be 9135 96be
000001b0: ddb7 813e d55b ebbd 5ba7 573d da9f e73c
000001c0: 5507 223e 3c00 81be c322 7f3e 9198 8abe
000001d0: 7b9e e3bd e804 71bd 00ca be3d acbb 3f3e
000001e0: 6793 4cbe b5ad 37be 9417 2b3e d314 39be
000001f0: 9fdd 43bc daf1 583e e20e 4fbe 5de3 5d3d
00000200: 30fc 153e 2518 893e 2be5 a4be fd74 a4be
00000210: 59ef 9abe 2efc 64be 1d77 ccbd edf5 d0bd
00000220: 1b97 963e 2e26 b73c 3557 a33d 74d5 4abe
00000230: d35b 9f3d 306e 1abd e7ab 7ebe edf9 d1bd
00000240: e7e0 613e 477a 413e f533 1ebd 152a 093e
00000250: 0a1f 88be ea2e 8d3e 9ca5 273e f0a0 bebd
00000260: 1615 3d3e 7b05 ccbd 5498 433e 2587 debd
00000270: 49ca 11be 0422 e8bd 28af 513e eb94 66bc
00000280: a5c1 0d3e 656d abbe b06c 9dbc 6a55 16be
00000290: 04a2 933e d2ad d43c f291 3abd bfec 62be
000002a0: 0865 7dbe 02f8 633e 6cf3 143d a1ab 653e
000002b0: 2441 a4be aaa3 693e 0d6f 173e 4bac 1d3e
000002c0: a540 5cbd 8dd9 39be 59e4 9ebe a44c 6d3c
000002d0: 8704 2fbe 4989 19bd 9d62 233e 9141 893e
000002e0: 89f6 8ebe fce5 793c ddcf 153c 7bdc 20bd
000002f0: 5564 0abe a7b3 98bc 807c 483e 2191 83bb
00000300: a23e 8d3e f6b0 443c dd03 1e3e f352 343e
00000310: c776 dc3c 02e5 4fbe 5402 46be b1eb a8bd
00000320: ddfc a03c 57dd 823d d4a2 67be b0d3 e03d
00000330: 6f7d c5bd 7a23 21be 15a1 27be fa5f d93d
00000340: 7648 213e e0c7 2a3e dec7 853e 9564 94be
00000350: cbac 51be c6ce 4fbe c545 9bbe bff7 5f3e
00000360: defa 16bd 0b09 62bd 447d ae3e e97e bd3c
00000370: 9eee 9dbe 5633 8abe a456 10bd bc95 bf3d
00000380: b1e3 e53d d157 db3d ae91 10be 659b 50be
00000390: 7c4b 533e b45a a53e ff7d 2dbe 67c8 3d3e
000003a0: e47f bcbd f7bf 163e ed3d a4be 525f a43e
000003b0: 036d e5bd 5c6c 883e a2c4 a93d 9076 173e
000003c0: 90ca 95be 3e60 d9bd 989a edbd 5ca6 c33d
000003d0: a4ec e83d ea48 7f3e 7894 4f3e 403b 3e3e
000003e0: 83b1 3bbe 41f4 38be 3da9 1fbe 022b 413e
000003f0: eaf8 07bc 8893 a23e b41b 193e 6945 0abd

sequential/dense_1/BiasAdd/ReadVariableOp:0 f4 [10]
-0.039885152 0.029725479 -0.019153584 0.03800591 -0.013816668 0.0005335372 -0.02252184 0.034100015
0.009125899 -0.030551268
00000000: 9d5e 23bd d982 f33c fae7 9cbc 16ac 1b3d
00000010: 4e5f 62bc 13dd 0b3a b97f b8bc 75ac 0b3d
00000020: cb84 153c a746 fabc

sequential/dense/MatMul/ReadVariableOp:0 f4 [576, 64]
0.06880834 -0.081071466 0.025946027 -0.03146633 -0.17268226 0.0220836 0.1402735 -0.0015019173
0.06280929 -0.009609554 -0.033527434 0.051460087 0.085165106 0.016679287 -0.031113243 0.01641725
-0.05801654 0.06863703 -0.021677338 0.06785986 0.06949987 0.061588675 -0.07420334 0.06695946
0.1393668 -0.030262955 -0.008211521 0.016823692 -0.12071909 0.022457005 -0.070380084 0.010795496
-0.089607626 -0.05020624 0.0235917 0.0600817 0.064401835 -0.00027937163 0.06742786 0.033645432
-0.13347125 -0.040876165 -0.063463874 -0.09699263 -0.0402072 0.030716449 -0.17577107 -0.09525814
0.05003158 0.025875254 0.19289166 0.094460286 -0.06699683 -0.013728709 0.084683195 -0.002729884
-0.1662616 0.003702683 0.107323654 -0.010226573 0.026645929 0.02331526 0.0292058 0.008664333
0.035554823 -0.09307723 -0.07200886 -0.016379144 -0.13134362 -0.0074561425 -0.07500159 0.06339925
0.15853871 0.20422132 0.0062021236 0.04439991 -0.041613184 0.026633898 0.03931567 -0.073636524
-0.13713072 -0.022221107 0.02759615 0.07389517 -0.18947665 -0.012232795 -0.10758367 -0.09710941
0.08559419 0.05256695 -0.14002453 0.061166365 0.081561096 -0.014362735 -0.03436308 0.03867981
0.08396884 -0.008206228 -0.0481283 -0.0025640049 0.015573714 0.035961557 0.027404174 0.03247878
-0.004469989 0.02708853 -0.11724656 -0.0826539 0.041681565 -0.019368757 0.11520113 -0.076273724
-0.08334117 -0.00071603747 -0.10144968 -0.015313815 -0.024241526 -0.090406984 0.15871136 0.010565992
-0.036124334 -0.008869339 -0.098457694 0.06927484 0.034169592 0.16786942 0.14212964 0.11500453
-0.031403456 -0.082643524 0.04959502 -0.12682295 -0.052282315 0.13778046 -0.08235521 0.0721739
-0.06169355 0.13327366 -0.14761975 -0.007618352 -0.042714607 0.10570517 0.059260305 0.048184074
0.0145035535 -0.17256209 -0.03814506 0.13480851 -0.09084444 0.042911433 0.043891672 -0.07907923
0.18320304 -0.034733903 0.010880993 0.026827235 0.08630045 -0.0757419 0.044105627 -0.033510815
0.011612347 0.076049164 -0.08300345 0.038939584 0.069913514 -0.031674933 -0.07963953 0.005335263
-0.11046152 -0.0035378912 -0.019951308 -0.0076317294 -0.07481783 0.009406152 -0.047737576 0.051422726
0.015123622 -0.06957303 0.046692125 0.07589276 0.11787361 0.06434722 0.024037769 -0.12693253
-0.0346553 0.1721011 0.044522423 0.025524419 0.010809933 0.009982956 -0.068362884 -0.101574555
0.0151937725 -0.08060958 -0.036859713 -0.010198138 -0.00935212 -0.1725023 -0.111819685 -0.10340438
0.12197638 0.036546435 0.13423641 -0.007710581 -0.06261363 -0.07676205 0.063286625 0.024361402
-0.054052435 -0.15469949 -0.054861248 0.023771148 -0.03127814 -0.060715996 -0.09445967 0.06284516
0.10165298 0.11260577 0.06877226 0.0045449883 0.03609835 -0.03141851 0.040763013 -0.021149687
0.1503775 0.056084227 0.033636816 -0.06357349 -0.15133615 0.069646634 -0.056202255 -0.23244429
-0.19157217 0.022585118 0.051910035 -0.07036267 -0.09464527 -0.18865225 -0.035074353 -0.0331353
-0.11328318 0.08541483 -0.16615663 -0.124851055 0.05622995 0.07799877 0.20128481 0.046947975
0.06516084 0.011947744 -0.12363747 -0.118673675 -0.11611541 -0.10505282 0.15291569 0.22098264
00000000: 63eb 8c3d cc08 a6bd c38c d43c d7e2 00bd
00000010: 9ed3 30be aae8 b43c dba3 0f3e fbdb c4ba
00000020: 28a2 803d 6471 1dbc 1054 09bd d0c7 523d
00000030: 0b6b ae3d 00a3 883c 33e1 febc 787d 863c
00000040: c0a2 6dbd 9291 8c3d ac94 b1bc 1cfa 8a3d
00000050: f355 8e3d 6844 7c3d ecf7 97bd 0b22 893d
00000060: 2cb6 0e3e 04ea f7bc 9e89 06bc d7d1 893c
00000070: 923b f7bd c1f7 b73c 6f23 90bd 98df 303c
00000080: 3484 b7bd 0fa5 4dbd 6143 c13c 3b18 763d
00000090: 1ce5 833d a078 92b9 9e17 8a3d cbcf 093d
000000a0: b0ac 08be c46d 27bd 59f9 81bd 12a4 c6bd
000000b0: 4eb0 24bd 10a1 fb3c 55fd 33be b316 c3bd
000000c0: eaed 4c3d 57f8 d33c 6485 453e 6574 c13d
000000d0: a235 89bd 61ee 60bc 626e ad3d dbe7 32bb
000000e0: 7b40 2abe b6a8 723b 81cc db3d 5b8d 27bc
000000f0: 9048 da3c a5ff be3c 0041 ef3c d9f4 0d3c
00000100: efa1 113d 469f bebd 6279 93bd 8e2d 86bc
00000110: f17e 06be a852 f4bb 6f9a 99bd 77d7 813d
00000120: f957 223e 651f 513e 2f3b cb3b aedc 353d
00000130: 9672 2abd 552f da3c 7809 213d bfce 96bd
00000140: ff6b 0cbe 0a09 b6bc 5211 e23c 5a56 973d
00000150: 2b06 42be 106c 48bc d454 dcbd 4ce1 c6bd
00000160: 024c af3d 7150 573d 9762 0fbe 9589 7a3d
00000170: 8109 a73d ad51 6bbc 4dc0 0cbd b86e 1e3d
00000180: dbf7 ab3d 6a73 06bc 2e22 45bd dd08 28bb
00000190: e428 7f3c 6d4c 133d b87e e03c 7808 053d
000001a0: fc78 92bb c4e8 dd3c f71e f0bd 7346 a9bd
000001b0: 4aba 2a3d 3aab 9ebc 92ee eb3d 6635 9cbd
000001c0: c6ae aabd 76b4 3bba dac4 cfbd cce6 7abc
000001d0: 2a96 c6bc 4c27 b9bd 3b85 223e fc1c 2d3c
000001e0: 1cf7 13bd b450 11bc 30a4 c9bd f8df 8d3d
000001f0: 6af5 0b3d f6e5 2b3e 6f8a 113e 7f87 eb3d
00000200: e9a0 00bd 0241 a9bd 2624 4b3d e0dd 01be
00000210: fb25 56bd 5216 0d3e d9a9 a8bd e9cf 933d
00000220: 60b2 7cbd e478 083e a229 17be 5ea3 f9bb
00000230: 83f5 2ebd f47b d83d efba 723d aa5c 453d
00000240: 50a0 6d3c 1eb4 30be ff3d 1cbd 3e0b 0a3e
00000250: a60c babd e6c3 2f3d c1c7 333d 4bf4 a1bd
00000260: 9499 3b3e 2345 0ebd 3146 323c cac4 db3c
00000270: 4abe b03d 921e 9bbd 1aa8 343d a342 09bd
00000280: b741 3e3c aabf 9b3d b6fd a9bd 1d7f 1f3d
00000290: d12e 8f3d 93bd 01bd 0d1a a3bd 6ed3 ae3b
000002a0: a639 e2bd f7db 67bb ed70 a3bc 9613 fabb
000002b0: 173a 99bd 431c 1a3c 7a88 43bd a3a0 523d
000002c0: 11c9 773c 4e7c 8ebd 3e40 3f3d aa6d 9b3d
000002d0: b867 f13d 7ac8 833d dbea c43c 9afa 01be
000002e0: b7f2 0dbd 453b 303e 255d 363d 9618 d13c
000002f0: 251c 313c 8d8f 233c d701 8cbd 5206 d0bd
00000300: 4def 783c a316 a5bd 36fa 16bd 1716 27bc
00000310: a239 19bc 71a4 30be b801 e5bd adc5 d3bd
00000320: c1ce f93d b7b1 153d 4575 093e 0ba9 fcbb
00000330: 933b 80bd 6c35 9dbd 6b9c 813d 9091 c73c
00000340: 1666 5dbd 8b69 1ebe 30b6 60bd b6bb c23c
00000350: 821d 00bd 56b1 78bd 1274 c1bd f7b4 803d
00000360: 702f d03d db9d e63d 78d8 8c3d 20ee 943b
00000370: dddb 133d b2b0 00bd 1ef7 263d 1c42 adbc
00000380: 8ffc 193e 93b8 653d c2c6 093d d132 82bd
00000390: ddf7 1abe e5a2 8e3d 5634 66bd e005 6ebe
000003a0: 7f2b 44be 6d04 b93c 9e9f 543d 4e1a 90bd
000003b0: 61d5 c1bd 0e2e 41be 20aa 0fbd e1b8 07bd
000003c0: 0301 e8bd f8ed ae3d f724 2abe e9b1 ffbd
000003d0: 6051 663d d2bd 9f3d 9b1d 4e3e 854c 403d
000003e0: 0c73 853d 78c0 433c a435 fdbd 2f0b f3bd
000003f0: ebcd edbd ef25 d7bd ee95 1c3e 4649 623e

sequential/dense/BiasAdd/ReadVariableOp:0 f4 [64]
-0.016638247 -0.057429355 -0.06805026 0.013822719 -0.025645938 0.023616819 0.01788017 0.05122016
0.033495605 0.04220838 0.027916178 0.0036721383 -0.015860187 0.029301418 -0.007646189 -0.0247709
-0.024580924 0.010650861 -0.012349151 -0.05211349 0.009781942 0.040498927 0.020470263 0.05915176
0.021415383 0.045869082 0.03490113 -0.013766285 -0.00948423 0.004607918 -0.023759251 0.009468719
0.06810341 -0.015696097 -0.030263456 -0.013063453 0.037039183 -0.030767562 -0.02014577 -0.01750585
-0.017342456 -0.015617942 -0.01400223 -0.004519582 -0.018236408 -0.01667833 -0.033033907 -0.037858736
-0.032410264 -0.034301307 0.029198688 -0.036612455 0.013548319 -0.011779464 0.002199489 0.04262415
0.027689317 -0.012700166 -0.017634952 -0.026101839 -0.01318364 -0.053257994 0.023170909 -0.015849128
00000000: ef4c 88bc 0b3b 6bbd ef5d 8bbd b078 623c
00000010: 6e17 d2bc 0f78 c13c 6f79 923c 3bcc 513d
00000020: b032 093d b2e2 2c3d 78b0 e43c 42a8 703b
00000030: 39ed 81bc 8709 f03c e28c fabb 58ec cabc
00000040: ef5d c9bc f380 2e3c 1854 4abc f474 55bd
00000050: 7044 203c 34e2 253d 41b1 a73c 1e49 723d
00000060: 506f af3c 38e1 3b3d 7df4 0e3d fc8b 61bc
00000070: be63 1bbc 05fe 963b c3a2 c2bc b022 1b3c
00000080: cd79 8b3d 1a95 80bc 11eb f7bc 1808 56bc
00000090: 66b6 173d 410c fcbc be08 a5bc 6e68 8fbc
000000a0: c411 8ebc 66e2 7fbc 9c69 65bc 0019 94bb
000000b0: 8564 95bc fea0 88bc 904e 07bd c311 1bbd
000000c0: a0c0 04bd 877f 0cbd 1632 ef3c f1f6 15bd
000000d0: c5f9 5d3c a7fe 40bc 4d25 103b a996 2e3d
000000e0: b5d4 e23c 5b14 50bc 2d77 90bc 86d3 d5bc
000000f0: 3200 58bc 0e25 5abd ebd0 bd3c 08d6 81bc

sequential/conv2d_2/Conv2D/ReadVariableOp:0 f4 [64, 64, 3, 3]
0.042986494 0.017797815 -0.06048512 0.11436583 -0.035464354 -0.05339487 0.10227937 -0.028225837
-0.038574174 -0.08462842 -0.04101729 -0.24791272 -0.09888689 -0.040742446 -0.060579717 0.054612637
0.012421494 -0.056159463 -0.10387511 -0.05622722 0.002396217 -0.030588124 -0.037928082 -0.01669548
-0.095766515 -0.09953382 -0.084608965 0.01157306 -0.014443863 -0.09419398 -0.029046496 -0.08863456
-0.0137709435 -0.076469675 0.041919287 0.05064878 -0.013519153 -0.10309207 -0.0193152 0.06010287
0.025099218 0.0013331501 0.014771038 -0.045652036 -0.048259716 -0.08408139 -0.04482626 0.07456981
0.1073328 -0.021485634 -0.023785748 0.12866521 -0.011748843 -0.21545537 0.13093214 -0.0026290738
-0.054358218 0.03869772 -0.10559394 -0.03578407 0.08254578 -0.026525052 0.039344016 -0.012631101
-0.11572264 -0.15071368 -0.08976765 -0.033258226 0.052208554 -0.1233661 -0.035222217 0.044810683
-0.07887968 0.0140238805 -0.018324107 -0.11587953 -0.0047116512 0.025343383 -0.12389753 -0.07279808
0.052966323 0.007244212 0.020278394 0.06326681 0.045099683 0.03371396 -0.044177666 0.06366587
0.07868855 0.09018207 0.014381833 0.010510786 -0.044686396 0.08247845 -0.035367996 0.052284256
-0.04582891 0.035855148 -0.10062673 -0.0036083264 0.040709674 -0.107195444 0.064181946 -0.008614873
-0.021969903 0.10106964 0.019823184 -0.00920018 0.102741495 -0.1753648 0.06008111 0.106394134
0.01008302 0.025021954 0.03724064 0.04763032 -0.13726163 0.0006267308 0.011383488 -0.16585255
-0.039027646 -0.021178726 -0.122454494 0.07291401 0.024216989 -0.018876377 0.101060525 0.0787196
-0.03128781 0.0017275147 -0.017766854 0.046823815 0.02535772 0.020580033 0.034174107 -0.1520845
-0.13155358 -0.024279011 0.03340746 -0.16176365 -0.047487803 0.093440324 -0.14799432 -0.14468908
-0.1626106 -0.17408468 -0.044481393 -0.1339041 -0.057391234 0.048521433 -0.2445226 0.01496357
0.025702765 -0.038809117 -0.08314243 0.05559092 0.08065819 0.058360398 -0.05416282 0.01455991
0.047675285 -0.043481335 0.09236429 -0.03876763 -0.06688555 0.115507856 -0.02182983 -0.017972957
-0.023750648 -0.061183807 -0.13700739 -0.0603102 -0.04970417 -0.0069963457 0.011679304 -0.065789156
-0.08628842 0.0289795 -0.09545111 -0.036282443 0.019971916 0.014705832 -0.08404306 -0.123054765
-0.16915768 -0.15702352 -0.10488911 -0.061810847 0.07035399 -0.0451095 -0.10211706 -0.102887936
0.028714161 0.01254786 0.02796406 -0.100822024 0.08413648 0.086170316 -0.029790888 0.040575124
-0.046750218 0.103842914 0.022462323 -0.12428869 -0.080142766 0.09030263 0.027153673 0.029335411
-0.0787277 -0.022503646 -0.013871133 -0.09073748 -0.013562635 -0.021685423 -0.07008731 0.028564129
0.11026426 0.13619068 0.02617676 0.12326535 0.11675971 -0.06629304 0.076707035 -0.0372222
-0.009319012 0.101907134 -0.03849624 -0.06669902 0.008351053 0.0036947925 0.028778557 -0.03408989
-0.02357717 -0.012545799 0.06359446 0.051502347 -0.10092263 0.14500804 -0.08614165 -0.004862052
0.11761277 -0.07234221 -0.015390605 -0.041093707 0.035481617 -0.01782951 -0.0021088829 -0.091334485
-0.06474133 0.040548615 -0.10025551 -0.12719706 0.15093744 0.022555264 -0.06820028 0.059037335
00000000: 9b12 303d b9cc 913c 3fbf 77bd a238 ea3d
00000010: 1243 11bd 94b4 5abd d977 d13d df39 e7bc
00000020: f4ff 1dbd aa51 adbd bf01 28bd d5dc 7dbe
00000030: 3685 cabd 8de1 26bd 7022 78bd 80b1 5f3d
00000040: 8683 4b3c 7707 66bd 79bc d4bd 834e 66bd
00000050: da09 1d3b f293 fabc 7a5a 1bbd f6c4 88bc
00000060: 3c21 c4bd 63d8 cbbd 7747 adbd ef9c 3d3c
00000070: f4a5 6cbc c6e8 c0bd ebf2 edbc 0986 b5bd
00000080: 869f 61bc 229c 9cbd 8fb3 2b3d 1875 4f3d
00000090: 707f 5dbc ef21 d3bd e93a 9ebc 6d2e 763d
000000a0: e09c cd3c 18bd ae3a 3902 723c a1fd 3abd
000000b0: fbab 45bd dd32 acbd be9b 37bd 0eb8 983d
000000c0: 4dd1 db3d a402 b0bc 54da c2bc d0c0 033e
000000d0: 387e 40bc 55a0 5cbe 1313 063e 8a4c 2cbb
000000e0: b9a6 5ebd 8081 1e3d a341 d8bd 5192 12bd
000000f0: c30d a93d 114b d9bc 3127 213d adf2 4ebc
00000100: feff ecbd b054 1abe 1ad8 b7bd c739 08bd
00000110: a3d8 553d 5ea7 fcbd 2c45 10bd 688b 373d
00000120: ab8b a1bd 6bc4 653c 701c 96bc 3f52 edbd
00000130: 3264 9abb ed9c cf3c fdbd fdbd 2917 95bd
00000140: 37f3 583d db60 ed3b e01e a63c 0792 813d
00000150: 72ba 383d a617 0a3d a4f3 34bd 4063 823d
00000160: 7627 a13d 61b1 b83d c8a1 6b3c 6f35 2c3c
00000170: 1509 37bd 76ea a83d 08de 10bd 0428 563d
00000180: 18b7 3bbd d9dc 123d 6315 cebd ac79 6cbb
00000190: 30bf 263d 4989 dbbd d371 833d 6525 0dbc
000001a0: 3afa b3bc 99fd ce3d 3b64 a23c 5abc 16bc
000001b0: 226a d23d d592 33be 9c17 763d 2be5 d93d
000001c0: 4033 253c d7fa cc3c a489 183d 0318 433d
000001d0: 508e 0cbe 314b 243a cf81 3a3c 40d5 29be
000001e0: 74db 1fbd 027f adbc 6cc9 fabd f153 953d
000001f0: b562 c63c a2a2 9abc d2f8 ce3d be37 a13d
00000200: a627 00bd c66d e23a cb8b 91bc 54ca 3f3d
00000210: feba cf3c 7597 a83c 26fa 0b3d 0abc 1bbe
00000220: fbb5 06be c7e4 c6bc 43d6 083d 5fa5 25be
00000230: 9282 42bd a45d bf3d d38b 17be 6029 14be
00000240: 6583 26be 4143 32be 1f32 36bd 281e 09be
00000250: 1213 6bbd 69be 463d 2264 7abe c329 753c
00000260: 9b8e d23c 4ff6 1ebd 9446 aabd 4eb3 633d
00000270: 1f30 a53d 500b 6f3d d5d9 5dbd b08c 6e3c
00000280: 2947 433d 7c19 32bd 7d29 bd3d ceca 1ebd
00000290: 4bfb 88bd 628f ec3d 79d4 b2bc 063c 93bc
000002a0: b890 c2bc df9b 7abd aa4b 0cbe d407 77bd
000002b0: 9a96 4bbd 9a41 e5bb 8d5a 3f3c 77bc 86bd
000002c0: fcb7 b0bd 6b66 ed3c df7b c3bd e69c 14bd
000002d0: 259c a33c bbf0 703c c51e acbd 2304 fcbd
000002e0: ac37 2dbe c6ca 20be 1ad0 d6bd 5f2d 7dbd
000002f0: c115 903d bdc4 38bd c022 d1bd e9b6 d2bd
00000300: f639 eb3c 8a95 4d3c e214 e53c c77b cebd
00000310: bf4f ac3d 107a b03d 050c f4bc 1a32 263d
00000320: 287d 3fbd 98ab d43d e802 b83c 128b febd
00000330: e421 a4bd 96f0 b83d 6171 de3c d150 f03c
00000340: fd3b a1bd 9159 b8bc c043 63bc 92d4 b9bd
00000350: d035 5ebc a1a5 b1bc f089 8fbd 52ff e93c
00000360: 3ad2 e13d 9275 0b3e a570 d63c 8b72 fc3d
00000370: b71f ef3d a5c4 87bd 9418 9d3d 4e76 18bd
00000380: c5ae 18bc b0b4 d03d 3cae 1dbd 7f99 88bd
00000390: dbd2 083c 5524 723b 02c1 eb3c d7a1 0bbd
000003a0: e924 c1bc e58c 4dbc d03d 823d 20f4 523d
000003b0: 86b0 cebd fd7c 143e 096b b0bd d951 9fbb
000003c0: f7de f03d 2728 94bd e028 7cbc e051 28bd
000003d0: 2c55 113d 310f 92bc 2f35 0abb 930d bbbd
000003e0: 1a97 84bd 4e16 263d c352 cdbd f23f 02be
000003f0: 588f 1a3e d1c5 b83c 97ac 8bbd 22d1 713d

sequential/conv2d_2/BiasAdd/ReadVariableOp:0 f4 [64]
0.009664025 0.02233192 -0.00062289817 -0.019587222 -0.005537205 -0.007856762 -0.00084794726 -0.010846985
0.0034175431 0.008280181 -0.025382478 -0.010253178 0.0040783933 0.0062040207 -0.023904439 0.029525315
0.03818096 -0.019403981 -0.0026920782 -0.012385988 0.025870204 -0.005669781 0.00073687616 0.002811964
-0.024742851 0.014428944 0.0032455022 0.008121733 -0.050831687 -0.034396775 -0.018542869 0.02307531
0.049649443 0.042287692 0.013072273 0.0013937798 -0.03030788 -0.007972581 0.0047619 -0.008307231
-0.027665157 0.03458437 0.015529459 -0.030398102 -0.012794458 -0.007043276 -0.00464339 0.054983184
0.0086598955 -0.046652395 -0.017325398 0.0048894705 -0.030186474 -0.012636375 -0.014150591 -0.0010507178
-0.044492587 0.08073851 -0.051559277 -0.019607024 -0.0024452813 -0.013190134 -0.032113444 -0.0057377876
00000000: dc55 1e3c 6ef1 b63c fd49 23ba 6275 a0bc
00000010: 7171 b5bb a6b9 00bc c748 5eba 8db7 31bc
00000020: dcf8 5f3b 99a9 073c eaee cfbc f2fc 27bc
00000030: 0ba4 853b 194b cb3b 3ed3 c3bc 13df f13c
00000040: a363 1c3d 19f5 9ebc 946d 30bb 99ee 4abc
00000050: c0ed d33c 92c9 b9bb ec2a 413a ed48 383b
00000060: 85b1 cabc 6167 6c3c 7eb2 543b 0411 053c
00000070: e334 50bd a2e3 0cbd 37e7 97bc 6f08 bd3c
00000080: 375d 4b3d dc35 2d3d 162d 563c 7daf b63a
00000090: 3b48 f8bc 6e9f 02bc b609 9c3b 0d1b 08bc
000000a0: 0aa2 e2bc 57a8 0d3d 466f 7e3c 7105 f9bc
000000b0: d99f 51bc 48cb e6bb 9427 98bb 0c36 613d
000000c0: 3ce2 0d3c 9516 3fbd feed 8dbc da37 a03b
000000d0: a049 f7bc cc08 4fbc e1d7 67bc 3db8 89ba
000000e0: dc3d 36bd 3b5a a53d d22f 53bd e99e a0bc
000000f0: 0341 20bb 6f1b 58bc 6389 03bd 0d04 bcbb

sequential/conv2d_1/Conv2D/ReadVariableOp:0 f4 [64, 32, 3, 3]
-0.018194683 -0.02091078 0.20885965 -0.08079327 -0.093796745 0.15967323 -0.052565146 -0.18664621
0.19856639 -0.029219681 -0.10305543 0.17914647 0.014841433 -0.17588687 0.079043336 0.036928136
-0.15317556 0.17253886 -0.09031823 0.019991849 -0.052472312 0.09718052 0.04338721 -0.071628384
-0.026360134 0.061178956 -0.08527237 -0.14879927 0.031546343 0.06354797 -0.15331358 -0.08651485
-0.05665569 -0.09230932 0.03933066 -0.059489213 -0.13507405 0.058687862 0.120409444 -0.08547138
0.014044565 0.08043077 -0.018793318 0.057630934 0.0384698 -0.09739201 -0.0833202 0.0953657
0.1251694 -0.24743377 -0.034254916 -0.025616257 -0.16124457 0.225068 -0.14191332 -0.0662065
-0.037418343 -0.0700419 -0.16105828 0.14399055 -0.06966238 0.0032372235 0.0785701 -0.06628977
0.08206315 -0.04178792 -0.15474896 -0.015016615 0.11173964 -0.025965616 0.054111592 0.017009936
-0.120061696 0.05363076 -0.022615613 -0.004975961 0.027298156 0.12038407 -0.00657891 0.07278976
0.050891776 0.16371056 -0.07592317 -0.08338155 -0.08416276 -0.110233665 -0.0839069 -0.05797903
-0.1490956 -0.050480016 0.056421526 -0.2543615 0.03901354 -0.2707539 -0.2333195 0.027527837
0.056040373 -0.15914363 0.11436045 -0.016031977 -0.01954816 0.09460213 -0.14947088 -0.04330994
-0.0045674257 0.054825496 -0.062342595 0.06431613 0.06460493 0.12449328 -0.033580936 0.005861996
0.056849387 0.035092574 -0.112341695 0.012637576 -0.050901525 -0.012112826 -0.29610214 0.1111814
-0.17326507 -0.16729063 -0.016004544 0.019982105 -0.17122783 0.14420459 -0.1336635 -0.08134929
0.10621573 0.026301524 -0.15723749 -0.003022326 -0.003741843 -0.017960832 0.16708699 -0.056133904
-0.13223721 -0.03233814 -0.2170066 -0.04602258 0.020923344 0.09948562 0.0063793096 0.03416998
-0.024222132 0.065948606 0.011147132 -0.007778797 0.064277165 -0.00017911938 0.026163217 -0.054942135
-0.00039522076 -0.023596304 0.027383413 -0.034551386 0.04483847 -0.043104246 -0.03584514 -0.03290483
0.03367777 -0.08497347 -0.042935036 -0.20749407 -0.20440449 -0.1360547 -0.16726036 -0.12407878
0.14111488 -0.08187595 -0.15496485 -0.0011916016 -0.19262795 -0.050314605 -0.18966845 -0.21629103
0.051307205 0.06522149 -0.17108482 0.040482793 0.024408352 -0.09376826 -0.024021443 0.04133746
-0.06378074 0.048051108 0.006165711 -0.05544559 0.10543122 0.03181211 -0.054037154 -0.01162629
-0.16832973 0.098256454 0.006940709 0.008064295 -0.12805264 0.16449748 -0.21446234 -0.033851944
0.016295407 -0.022503585 -0.17225055 0.021372253 -0.013601005 -0.016774012 0.016830277 -0.022205422
-0.06681029 0.034332316 -0.13569789 -0.044146292 0.05558802 -0.07303764 -0.09881365 0.0856818
-0.27625516 -0.011017909 -0.07534228 0.032488335 -0.08202836 -0.04465412 -0.01293243 -0.0038803353
0.022144232 -0.18127401 0.06075693 0.05092757 0.030462861 -0.1057392 0.030783094 -0.0002816837
-0.059170432 -0.009705636 -0.06567614 -0.025126405 -0.14923562 -0.02965251 -0.0044780313 -0.07780789
0.06661014 0.045421142 -0.019725626 -0.09301858 0.05960845 0.03592991 -0.068990864 0.09428242
0.01918528 0.010438045 0.08126003 -0.09140447 0.07044369 -0.005386008 -0.14036074 -0.03403704
00000000: 040d 95bc 164d abbc 4edf 553e f176 a5bd
00000010: 8218 c0bd 6181 233e 8d4e 57bd 2f20 3fbe
00000020: fd54 4b3e 1d5e efbc ba0e d3bd 2c72 373e
00000030: 7b29 733c b01b 34be 79e1 a13d f541 173d
00000040: 0eda 1cbe 07ae 303e c4f8 b8bd f2c5 a33c
00000050: 35ed 56bd 9506 c73d cab6 313d e7b1 92bd
00000060: 35f1 d7bc c996 7a3d 48a3 aebd d65e 18be
00000070: bd36 013d 7025 823d 3cfe 1cbe b32e b1bd
00000080: cc0f 68bd ab0c bdbd 3019 213d f6aa 73bd
00000090: da50 0abe af62 703d 3a99 f63d 9e0b afbd
000000a0: 2d1b 663c e3b8 a43d 72f4 99bc 6a0e 6c3d
000000b0: 8292 1d3d 7675 c7bd c8a3 aabd 184f c33d
000000c0: 682c 003e 475f 7dbe e24e 0cbd 2fd9 d1bc
000000d0: 4c1d 25be 3a78 663e ba51 11be 4697 87bd
000000e0: fa43 19bd 2172 8fbd 76ec 24be 4272 133e
000000f0: 26ab 8ebd 9927 543b 5ce9 a03d eec2 87bd
00000100: ba10 a83d cf29 2bbd 8376 1ebe 4008 76bc
00000110: c1d7 e43d d8b5 d4bc 1ea4 5d3d 6c58 8b3c
00000120: e8e2 f5bd eeab 5b3d 6144 b9bc 630d a3bb
00000130: 62a0 df3c ec8b f63d e693 d7bb cc12 953d
00000140: e573 503d bea3 273e 9b7d 9bbd f2c3 aabd
00000150: 865d acbd 30c2 e1bd 61d7 abbd 6b7b 6dbd
00000160: 84ac 18be 22c4 4ebd 421a 673d ac3b 82be
00000170: a9cc 1f3d 41a0 8abe 4feb 6ebe 0f82 e13c
00000180: 978a 653d 8cf6 22be d035 ea3d 7e55 83bc
00000190: 7623 a0bc c3be c13d e50e 19be c365 31bd
000001a0: 58aa 95bb b390 603d f35a 7fbd 2db8 833d
000001b0: 974f 843d 55f6 fe3d 2a8c 09bd fd15 c03b
000001c0: e7da 683d 3bbd 0f3d 6713 e6bd d60d 4f3c
000001d0: 1e7e 50bd e074 46bc b39a 97be 13b3 e33d
000001e0: 666c 31be 3c4e 2bbe f61b 83bc 83b1 a33c
000001f0: 5956 2fbe 5eaa 133e 16df 08be 759a a6bd
00000200: a287 d93d 4b76 d73c dd02 21be 3712 46bb
00000210: b539 75bb 9822 93bc da18 2b3e aaec 65bd
00000220: 3169 07be ff74 04bd fa36 5ebe 2c82 3cbd
00000230: 6f67 ab3c 1ebf cb3d 8709 d13b d2f5 0b3d
00000240: 7e6d c6bc 1010 873d 76a2 363c 47e5 febb
00000250: bfa3 833d fed1 3bb9 3e54 d63c 010b 61bd
00000260: a235 cfb9 094d c1bc 2e53 e03c c185 0dbd
00000270: 8ba8 373d 148e 30bd 5bd2 12bd 37c7 06bd
00000280: b4f1 093d 9206 aebd a6dc 2fbd 5379 54be
00000290: 694f 51be ec51 0bbe 4d46 2bbe 041d febd
000002a0: 6b80 103e 94ae a7bd 1baf 1ebe 842f 9cba
000002b0: 4340 45be b016 4ebd 7238 42be 657b 5dbe
000002c0: 8127 523d d892 853d dc30 2fbe 49d1 253d
000002d0: 06f4 c73c 9309 c0bd 9ec8 c4bc 7851 293d
000002e0: 7a9f 82bd 3dd1 443d bc09 ca3b ea1a 63bd
000002f0: 53ec d73d 6a4d 023d 1056 5dbd 327c 3ebc
00000300: a15e 2cbe ae3a c93d e36e e33b 1b20 043c
00000310: 3b20 03be 0772 283e 049c 5bbe 56a8 0abd
00000320: f27d 853c 7059 b8bc 7362 30be dd14 af3c
00000330: c0d6 5ebc a769 89bc a6df 893c 25e8 b5bc
00000340: d5d3 88bd 0ba0 0c3d 63f4 0abe bed2 34bd
00000350: 43b0 633d c294 95bd d05e cabd f179 af3d
00000360: 5171 8dbe 7684 34bc 0e4d 9abd 7d12 053d
00000370: 7cfe a7bd 3de7 36bd 8be2 53bc 394d 7ebb
00000380: d267 b53c e59f 39be 42dc 783d 6d99 503d
00000390: 408d f93c cb8d d8bd d42c fc3c f2ae 93b9
000003a0: b25c 72bd 6304 1fbc 3681 86bd e4d5 cdbc
000003b0: 39d1 18be d2e9 f2bc 73bc 92bb be59 9fbd
000003c0: e66a 883d 850b 3a3d a397 a1bc 8680 bebd
000003d0: fd27 743d 3e2b 133d 154b 8dbd 2417 c13d
000003e0: 732a 9d3c 5504 2b3c a96b a63d 4432 bbbd
000003f0: c844 903d 1c7d b0bb baba 0fbe 6c6a 0bbd

sequential/conv2d_1/BiasAdd/ReadVariableOp:0 f4 [64]
-0.00084242277 -0.068732046 -0.07786576 -0.08797048 -0.020066928 0.034496695 -0.037097562 0.013284415
-0.026179478 -0.041094415 -0.038002357 -0.057689644 0.028077621 0.023163026 -0.047649268 0.029617056
0.0056964564 -0.016974393 -0.056256346 -0.07617096 -0.0783942 -0.008005366 0.0096403295 -0.06506264
0.004578446 -0.019473188 -0.05880579 -0.10485023 -0.009672033 -0.0136317015 -0.013918575 0.0075459653
-0.050377514 -0.02054565 0.0028352318 -0.048868235 0.020934183 0.05305014 -0.03977212 -0.050126355
-0.04018765 0.012667482 0.069165446 -0.04965261 -0.046105474 -0.021559034 0.028159238 0.0055402643
-0.018500654 -0.009229185 -0.072218545 0.030883817 -0.016527917 -0.049348366 0.036517218 -0.05558363
-0.024093522 -0.03705463 0.044443138 -0.11705334 -0.09652578 -0.10130697 -0.04963679 -0.03806922
00000000: 09d6 5cba 63c3 8cbd 1578 9fbd de29 b4bd
00000010: 6663 a4bc 684c 0d3d 9df3 17bd e0a6 593c
00000020: 5876 d6bc 9e52 28bd 5ca8 1bbd fa4b 6cbd
00000030: 0a03 e63c 63c0 bd3c e12b 43bd 789f f23c
00000040: 57a9 ba3b e20d 8bbc 0e6d 66bd 85ff 9bbd
00000050: 238d a0bd f028 03bc 79f2 1d3c 903f 85bd
00000060: ca06 963b 3c86 9fbc 57de 70bd b8bb d6bd
00000070: 7277 1ebc 8057 5fbc bc0a 64bc 2544 f73b
00000080: a758 4ebd 5a4f a8bc 4ccf 393b 0f2a 48bd
00000090: 2a7e ab3c 1b4b 593d 17e8 22bd 4b51 4dbd
000000a0: ce9b 24bd 458b 4f3c 9da6 8d3d 8960 4bbd
000000b0: 18d9 3cbd 929c b0bc 34ae e63c 1b8b b53b
000000c0: af8e 97bc 0236 17bc 51e7 93bd 0f00 fd3c
000000d0: 8e65 87bc 8321 4abd 1493 153d a9ab 63bd
000000e0: c75f c5bc 99c6 17bd 020a 363d a9b9 efbd
000000f0: 4faf c5bd 077a cfbd f24f 4bbd 78ee 1bbd

sequential/conv2d/Conv2D/ReadVariableOp:0 f4 [32, 1, 3, 3]
0.16704722 -0.017389573 -0.055650678 0.22742988 0.00042691623 -0.28082743 0.24550359 -0.13567753
-0.16747993 0.045491196 0.11243212 -0.17715497 0.23864931 -0.11199484 -0.16761482 0.14595835
0.01346531 -0.07574814 -0.19040044 -0.2390247 -0.0713242 -0.12124928 0.0036526208 -0.0029150983
0.22936536 0.02225487 0.18980776 0.15334712 -0.12093816 0.054298133 0.031553704 -0.011800288
0.015620064 -0.102651894 0.14216392 -0.014620049 -0.13401742 0.115792364 0.07339332 0.064573616
0.18664515 -0.07553706 0.006547739 0.08090528 -0.04655176 0.03753907 -0.12739319 -0.18505402
0.045361016 -0.11420508 -0.2612784 0.31514463 0.22032112 0.04128653 0.15534106 -0.06763435
-0.3016111 0.028422559 0.02115552 -0.037661497 -0.06642121 0.07866549 0.16835499 0.10921604
0.1334029 -0.20782559 -0.05029167 0.15547924 0.08126809 -0.046659507 0.10403225 0.060905404
-0.15467173 0.09812532 0.045498226 -0.07936291 0.16435452 0.04325062 0.109352365 0.16444746
-0.17185196 0.09937864 0.23317544 0.26249117 -0.20493494 -2.369481e-05 0.1318667 -0.18046722
-0.33111867 -0.13293198 0.16781141 0.11687504 0.1852023 0.20830321 -0.048422128 -0.16580933
-0.23025458 -0.2355223 -0.18988654 0.09429617 -0.04684264 0.1351338 0.1082237 0.1817463
-0.024220724 -0.09607078 0.11884903 -0.16482994 -0.24237145 -0.03463993 0.1933375 -0.25099948
0.08504243 0.14373994 -0.20093893 0.12957221 0.11759672 0.03927051 0.06474339 0.10824644
0.23135866 0.10930428 -0.059794705 -0.051101547 -0.24188733 -0.20436503 0.08337966 -0.13133034
-0.28128472 0.13469782 -0.04513133 -0.23939212 0.20703512 -0.014620625 -0.23363438 0.21784957
0.19402805 0.055791155 -0.08626707 -0.00874298 -0.024108313 -0.1142513 -0.23441961 -0.28020054
-0.08194435 0.08062908 0.1411234 -0.08276544 -0.0616009 0.08699862 -0.11447565 -0.07625267
0.060983133 -0.14777952 -0.12653653 0.12135283 0.0009700051 0.06647075 0.18619367 0.022456383
0.15190715 -0.023306768 0.07844631 0.21096152 0.12210905 -0.123108685 -0.016098345 -0.06264115
-0.24340618 -0.29353186 -0.1741805 0.2364867 0.1813978 0.021411425 -0.03128705 -0.07455269
0.001712541 -0.15705395 -0.26173535 -0.12320808 0.14161195 -0.18191653 -0.2608466 -0.22533886
-0.1710129 0.0028362656 0.14111388 0.20529485 0.2533379 0.2613334 0.027651269 -0.29454595
0.15438189 -0.16058475 -0.23400792 -0.03015535 -0.14935853 -0.2338545 0.05397518 -0.32060462
-0.26938948 -0.14291202 -0.043453366 0.18989795 0.25497282 0.15720229 0.065037966 0.0152734835
0.03763055 0.040570233 0.17770866 0.12992723 0.012049385 0.07146032 -0.0691572 -0.15286098
-0.024129657 -0.32351938 -0.30416653 0.1383382 0.16307937 0.115958884 -0.03836685 0.22983146
-0.0023466405 0.10623467 -0.08984394 -0.13050738 0.054784082 0.16240178 -0.07210684 -0.10143833
0.15491168 0.07370849 0.11497341 0.015084207 -0.09243554 0.015397691 0.0038037093 0.020418223
-0.26477587 0.053044155 0.13045344 -0.1007923 -0.3627687 -0.052814964 -0.3730534 0.008531835
0.26645038 -0.28127325 0.124670185 0.1858948 0.1705478 0.037467197 -0.2822974 -0.11532501
00000000: 6d0e 2b3e 9474 8ebc f7f1 63bd 61e3 683e
00000010: bad3 df39 9dc8 8fbe 4b65 7b3e 0def 0abe
00000020: dc7f 2bbe fa54 3a3d d042 e63d 1d68 35be
00000030: 7c60 743e 8d5d e5bd 38a3 2bbe 1b76 153e
00000040: 9b9d 5c3c d721 9bbd 55f8 42be e4c2 74be
00000050: 6c12 92bd 8b51 f8bd cf60 6f3b 3c0b 3fbb
00000060: c1de 6a3e d84f b63c f75c 423e 0707 1d3e
00000070: 6dae f7bd b867 5e3d 753e 013d ff55 41bc
00000080: 4ceb 7f3c 283b d2bd 6b93 113e ee88 6fbc
00000090: dd3b 09be 8c24 ed3d 3d4f 963d 2c3f 843d
000000a0: e81f 3f3e 2db3 9abd 6a8e d63b abb1 a53d
000000b0: 0fad 3ebd 91c2 193d 5c73 02be cd7e 3dbe
000000c0: 79cc 393d 5ae4 e9bd 48c6 85be a35a a13e
000000d0: dc9b 613e 111c 293d ba11 1f3e e183 8abd
000000e0: c56c 9abe 6dd6 e83c 574e ad3c f142 1abd
000000f0: d807 88bd 5f1b a13d 4065 2c3e a9ac df3d
00000100: c59a 083e 3bd0 54be a3fe 4dbd f335 1f3e
00000110: e26f a63d 0a1e 3fbd dc0e d53d f277 793d
00000120: 4462 1ebe eef5 c83d 595c 3a3d 0589 a2bd
00000130: 8d4c 283e 9027 313d 22f4 df3d ea64 283e
00000140: f6f9 2fbe 0787 cb3d 8bc5 6e3e 3e65 863e
00000150: 77da 51be 38c4 c6b7 1008 073e 66cc 38be
00000160: 6388 a9be 521f 08be c1d6 2b3e 2e5c ef3d
00000170: aca5 3d3e 704d 553e 4856 46bd ecc9 29be
00000180: dbc7 6bbe c22c 71be 9e71 42be 5a1e c13d
00000190: 11de 3fbd 8460 0a3e 63a4 dd3d b41b 3a3e
000001a0: 8a6a c6bc c2c0 c4bd 1f67 f33d 2ec9 28be
000001b0: 3930 78be 99e2 0dbd 44fa 453e 0183 80be
000001c0: ba2a ae3d 9030 133e efc2 4dbe 94ae 043e
000001d0: 8dd6 f03d 1dda 203d 2f98 843d 4fb0 dd3d
000001e0: 49e9 6c3e ecda df3d 4beb 74bd db4f 51bd
000001f0: 50b1 77be 1145 51be f5c2 aa3d 767b 06be
00000200: 8d04 90be 3aee 093e a1db 38bd 3523 75be
00000210: 0401 543e 598b 6fbc da3d 6fbe f513 5f3e
00000220: 4aaf 463e 4485 643d caac b0bd b73e 0fbc
00000230: cc7e c5bc 96fc e9bd b20b 70be 7276 8fbe
00000240: 70d2 a7bd dc20 a53d a782 103e ed80 a9bd
00000250: 3a51 7cbd 552c b23d 3672 eabd 5c2a 9cbd
00000260: 73c9 793d 8453 17be cb92 01be d587 f83d
00000270: f147 7e3a d121 883d 8ea9 3e3e 73f6 b73c
00000280: 8c8d 1b3e d6ed bebc 75a8 a03d 4c06 583e
00000290: 4f14 fa3d 6820 fcbd ade0 83bc 014a 80bd
000002a0: 783f 79be cf49 96be 5f5c 32be 9229 723e
000002b0: 58c0 393e 0367 af3c da26 00bd 15af 98bd
000002c0: 5777 e03a c0d2 20be 2d02 86be 8554 fcbd
000002d0: b902 113e 5448 3abe b08d 85be 3bbf 66be
000002e0: 011e 2fbe a4e0 393b 2880 103e d038 523e
000002f0: 81b5 813e 7ecd 853e ea84 e23c bace 96be
00000300: 4916 1e3e 5470 24be c69f 6fbe 5a08 f7bc
00000310: 71f1 18be 8e77 6fbe 1415 5d3d 4a26 a4be
00000320: 6bed 89be 8757 12be 28fc 31bd 9c74 423e
00000330: cc8b 823e a3f9 203e a032 853d a23d 7a3c
00000340: 7e22 1a3d f92c 263d 42f9 353e a50b 053e
00000350: c96a 453c ca59 923d 4aa2 8dbd 9787 1cbe
00000360: 8fab c5bc 55a4 a5be b7bb 9bbe 87a8 0d3e
00000370: 47fe 263e da7b ed3d 8f26 1dbd f058 6b3e
00000380: 18ca 19bb 9091 d93d 1a00 b8bd baa3 05be
00000390: 4665 603d a74c 263e c0ac 93bd e6be cfbd
000003a0: 2ba1 1e3e 7af4 963d 2e77 eb3d c023 773c
000003b0: d84e bdbd 9946 7c3c a747 793b 1e44 a73c
000003c0: b490 87be d444 593d 9695 053e 326c cebd
000003d0: d2bc b9be 8154 58bd db00 bfbe 1cc9 0b3c
000003e0: 2f6c 883e 0c03 90be 1553 ff3d 355b 3e3e
000003f0: 15a4 2e3e 3477 193d 4989 90be 852f ecbd

sequential/conv2d/BiasAdd/ReadVariableOp:0 f4 [32]
-0.012278311 -0.0062562106 -0.020968795 -0.097520456 -0.09990389 -0.014580154 -0.016685998 -0.08682724
-0.10985612 0.033840634 0.0025269396 -0.114640914 -0.014342565 -0.025288176 0.0041278913 0.012774117
-0.04075064 -0.105176695 0.047969528 -0.012445189 -0.024790157 0.07411812 -0.016303727 -0.054269128
-0.009176503 -0.043377247 -0.036256116 0.00016436084 0.13446908 -0.051509798 -0.03450138 -0.016504727
00000000: f82a 49bc e600 cdbb c0c6 abbc ceb8 c7bd
00000010: 699a ccbd 99e1 6ebc 13b1 88bc 7bd2 b1bd
00000020: 3ffc e0bd 7a9c 0a3d 039b 253b dbc8 eabd
00000030: 14fd 6abc 2629 cfbc 4343 873b 884a 513c
00000040: 25ea 26bd e166 d7bd b27b 443d e8e6 4bbc
00000050: ba14 cbbc 3ecb 973d 658f 85bc 4e49 5ebd
00000060: 0b59 16bc 57ac 31bd 4b81 14bd 4758 2c39
00000070: 43b2 093e f0fb 52bd 5251 0dbd ec34 87bc
